models/model.tflite (tflite, 95056 bytes, 4 tensors)

sequential/quant_dense/MatMul;sequential/quant_dense/LastValueQuant/FakeQuantWithMinMaxVars i1 [256, 187] scale=0.003956136 zero_point=0
0.04747363 0.04747363 -0.110771805 0.007912272 0.11472794 -0.110771805 -0.059342038 0.118684076
0.07516658 -0.13846475 -0.12659635 0.071210444 -0.118684076 -0.019780679 -0.031649087 0.015824543
-0.06329817 0.12264021 0.071210444 -0.031649087 -0.06725431 0.003956136 -0.09494726 -0.059342038
0.06329817 0.118684076 0.035605222 0.15824543 0.055385903 0.12659635 -0.011868408 -0.14242089
0.083078854 -0.011868408 0.039561357 -0.071210444 0.110771805 -0.118684076 0.019780679 0.007912272
0.007912272 -0.051429767 0.011868408 -0.051429767 0.06725431 -0.059342038 0.09494726 -0.031649087
-0.110771805 0.039561357 -0.007912272 0.011868408 -0.07516658 0.06725431 0.14637703 0.07516658
-0.019780679 -0.059342038 -0.087034985 -0.055385903 0.0 -0.07516658 0.039561357 0.110771805
-0.039561357 0.14242089 0.06329817 0.090991125 -0.019780679 -0.12264021 0.003956136 0.07516658
0.027692951 0.011868408 0.031649087 -0.06329817 -0.055385903 -0.16220157 0.007912272 -0.039561357
0.011868408 0.007912272 0.039561357 0.09494726 0.023736816 -0.13450862 0.039561357 -0.098903395
0.031649087 -0.13055249 0.0 -0.083078854 0.110771805 -0.011868408 -0.110771805 -0.118684076
-0.071210444 -0.06725431 -0.098903395 -0.023736816 -0.031649087 0.090991125 0.087034985 -0.20176293
-0.19780679 -0.12659635 -0.043517493 0.035605222 -0.043517493 0.106815666 0.083078854 -0.09494726
-0.031649087 0.090991125 -0.15033317 -0.16220157 0.071210444 0.079122715 -0.07516658 0.059342038
0.12659635 0.027692951 0.051429767 -0.007912272 -0.011868408 0.14637703 0.16615771 0.003956136
-0.031649087 -0.031649087 -0.079122715 0.035605222 -0.019780679 0.027692951 0.098903395 -0.11472794
-0.098903395 0.06725431 0.015824543 0.007912272 -0.04747363 0.09494726 -0.11472794 -0.098903395
-0.039561357 0.071210444 -0.039561357 -0.102859534 0.106815666 -0.015824543 -0.007912272 -0.043517493
-0.007912272 0.06329817 -0.071210444 -0.071210444 -0.098903395 0.083078854 0.055385903 -0.023736816
0.027692951 0.023736816 0.027692951 -0.090991125 0.079122715 0.110771805 0.031649087 0.007912272
0.019780679 0.027692951 -0.04747363 -0.04747363 -0.039561357 0.059342038 0.007912272 -0.007912272
0.087034985 -0.102859534 -0.043517493 -0.06725431 -0.06725431 -0.06329817 -0.12659635 -0.106815666
-0.019780679 0.06725431 -0.13846475 -0.019780679 0.071210444 0.031649087 -0.15824543 0.110771805
0.106815666 -0.027692951 -0.023736816 -0.27297336 -0.12659635 -0.039561357 -0.17802611 -0.07516658
-0.04747363 0.055385903 0.011868408 -0.011868408 -0.098903395 0.007912272 -0.071210444 0.04747363
0.023736816 -0.039561357 0.06329817 -0.29275405 0.12264021 -0.019780679 0.003956136 -0.09494726
0.051429767 0.04747363 0.14242089 -0.19780679 -0.13055249 0.110771805 0.083078854 0.007912272
-0.071210444 -0.16220157 0.106815666 0.106815666 -0.09494726 -0.106815666 0.098903395 0.090991125
-0.106815666 0.027692951 0.055385903 -0.102859534 0.003956136 0.083078854 0.015824543 0.14637703
0.06725431 0.051429767 -0.20571907 -0.13846475 -0.035605222 -0.039561357 0.019780679 -0.027692951
0.13055249 0.13055249 0.21758747 0.13846475 -0.007912272 0.15428929 0.035605222 -0.083078854
00000000: 0c0c e402 1de4 f11e 13dd e012 e2fb f804
00000010: f01f 12f8 ef01 e8f1 101e 0928 0e20 fddc
00000020: 15fd 0aee 1ce2 0502 02f3 03f3 11f1 18f8
00000030: e40a fe03 ed11 2513 fbf1 eaf2 00ed 0a1c
00000040: f624 1017 fbe1 0113 0703 08f0 f2d7 02f6
00000050: 0302 0a18 06de 0ae7 08df 00eb 1cfd e4e2
00000060: eeef e7fa f817 16cd cee0 f509 f51b 15e8
00000070: f817 dad7 1214 ed0f 2007 0dfe fd25 2a01
00000080: f8f8 ec09 fb07 19e3 e711 0402 f418 e3e7
00000090: f612 f6e6 1bfc fef5 fe10 eeee e715 0efa
000000a0: 0706 07e9 141c 0802 0507 f4f4 f60f 02fe
000000b0: 16e6 f5ef eff0 e0e5 fb11 ddfb 1208 d81c
000000c0: 1bf9 fabb e0f6 d3ed f40e 03fd e702 ee0c
000000d0: 06f6 10b6 1ffb 01e8 0d0c 24ce df1c 1502
000000e0: eed7 1b1b e8e5 1917 e507 0ee6 0115 0425
000000f0: 110d ccdd f7f6 05f9 2121 3723 fe27 09eb

sequential/quant_dense_1/MatMul;sequential/quant_dense_1/LastValueQuant/FakeQuantWithMinMaxVars i1 [128, 256] scale=0.0034488037 zero_point=0
0.041385643 0.08622009 -0.068976074 0.034488037 -0.02759043 0.017244019 -0.08277129 0.034488037
0.08622009 -0.07242487 0.031039232 0.07242487 -0.048283253 -0.044834446 -0.07587368 0.05862966
0.0068976074 -0.10691291 0.051732056 -0.068976074 -0.010346411 0.041385643 -0.1827866 0.16554257
-0.0068976074 0.06552727 -0.08277129 -0.06552727 0.12415693 -0.034488037 -0.062078465 0.0034488037
0.048283253 -0.10346411 -0.05862966 -0.051732056 -0.02759043 0.12415693 -0.096566506 0.08277129
-0.013795215 -0.020692822 0.013795215 0.034488037 0.024141626 0.16899139 0.02759043 -0.11725932
-0.034488037 0.10691291 -0.07587368 -0.041385643 0.051732056 0.044834446 -0.010346411 -0.020692822
-0.15519616 -0.14484975 0.062078465 0.15864497 -0.062078465 -0.08966889 -0.15174736 -0.07242487
-0.0034488037 0.08966889 0.041385643 0.017244019 0.02759043 0.020692822 -0.06552727 0.051732056
0.14484975 -0.034488037 -0.068976074 0.05518086 0.06552727 -0.16899139 0.11036172 -0.13105454
0.051732056 -0.11725932 -0.096566506 -0.017244019 0.041385643 0.024141626 0.0931177 0.048283253
0.14140095 -0.034488037 0.06552727 -0.0034488037 0.08622009 0.024141626 0.0 0.0931177
0.062078465 0.013795215 0.051732056 0.013795215 0.05518086 -0.1896842 0.16209377 -0.02759043
-0.07242487 -0.11725932 0.23451865 -0.017244019 -0.020692822 -0.044834446 0.0068976074 -0.12415693
-0.06552727 -0.062078465 0.12415693 -0.034488037 0.12415693 -0.13450335 -0.20692822 0.10346411
0.05518086 -0.14484975 0.10691291 0.15174736 0.16899139 0.10691291 -0.14140095 0.10346411
0.16209377 -0.08622009 -0.0034488037 0.024141626 0.02759043 0.13450335 0.17588899 0.0068976074
0.0068976074 0.044834446 0.068976074 0.0931177 -0.068976074 -0.041385643 -0.100015305 0.034488037
-0.05518086 -0.08622009 -0.16899139 0.07932249 -0.11725932 0.08277129 0.020692822 -0.16899139
0.15519616 -0.017244019 -0.03793684 -0.03793684 0.096566506 0.05862966 -0.113810524 0.017244019
-0.10691291 -0.15174736 -0.12070813 0.10691291 0.051732056 0.051732056 -0.08277129 0.07242487
0.10691291 -0.08622009 -0.068976074 -0.051732056 -0.17244019 -0.12760574 0.07932249 0.08622009
0.013795215 -0.041385643 -0.034488037 -0.020692822 -0.03793684 -0.07242487 0.08277129 -0.041385643
-0.100015305 0.03793684 -0.041385643 -0.08622009 -0.11036172 -0.044834446 -0.07932249 -0.041385643
-0.010346411 0.12760574 -0.15174736 0.041385643 -0.0931177 0.08966889 0.16554257 -0.096566506
0.10346411 0.1862354 -0.0034488037 -0.13105454 -0.024141626 -0.113810524 0.013795215 0.0068976074
-0.024141626 -0.07242487 -0.08966889 -0.14140095 -0.041385643 -0.07932249 0.07242487 0.100015305
0.068976074 -0.08277129 -0.068976074 0.15864497 0.11036172 -0.17933778 -0.11036172 0.13795215
0.03793684 0.06552727 0.15174736 -0.11036172 -0.0068976074 0.05862966 -0.03793684 -0.06552727
-0.07587368 -0.10691291 0.024141626 -0.0034488037 -0.041385643 0.12760574 0.100015305 -0.113810524
-0.044834446 -0.02759043 -0.03793684 0.06552727 0.0034488037 0.034488037 -0.051732056 -0.05862966
0.0068976074 0.010346411 -0.07932249 0.017244019 0.034488037 0.031039232 -0.08622009 -0.10691291
00000000: 0c19 ec0a f805 e80a 19eb 0915 f2f3 ea11
00000010: 02e1 0fec fd0c cb30 fe13 e8ed 24f6 ee01
00000020: 0ee2 eff1 f824 e418 fcfa 040a 0731 08de
00000030: f61f eaf4 0f0d fdfa d3d6 122e eee6 d4eb
00000040: ff1a 0c05 0806 ed0f 2af6 ec10 13cf 20da
00000050: 0fde e4fb 0c07 1b0e 29f6 13ff 1907 001b
00000060: 1204 0f04 10c9 2ff8 ebde 44fb faf3 02dc
00000070: edee 24f6 24d9 c41e 10d6 1f2c 311f d71e
00000080: 2fe7 ff07 0827 3302 020d 141b ecf4 e30a
00000090: f0e7 cf17 de18 06cf 2dfb f5f5 1c11 df05
000000a0: e1d4 dd1f 0f0f e815 1fe7 ecf1 cedb 1719
000000b0: 04f4 f6fa f5eb 18f4 e30b f4e7 e0f3 e9f4
000000c0: fd25 d40c e51a 30e4 1e36 ffda f9df 0402
000000d0: f9eb e6d7 f4e9 151d 14e8 ec2e 20cc e028
000000e0: 0b13 2ce0 fe11 f5ed eae1 07ff f425 1ddf
000000f0: f3f8 f513 010a f1ef 0203 e905 0a09 e7e1

sequential/quant_dense_2/MatMul;sequential/quant_dense_2/LastValueQuant/FakeQuantWithMinMaxVars i1 [64, 128] scale=0.0025275007 zero_point=0
0.20220006 -0.06824252 0.07582502 0.17692505 -0.14659505 -0.15670505 0.07077002 -0.012637503
-0.042967513 -0.08340752 -0.09099003 -0.010110003 0.118792534 -0.13648504 0.0075825024 -0.0025275007
0.19967256 -0.03538501 0.020220006 0.015165005 0.06318752 -0.14154004 -0.13395754 0.08593503
0.020220006 0.022747507 0.06066002 0.07077002 -0.025275007 0.020220006 0.15923254 0.10110003
-0.053077515 -0.010110003 -0.06824252 0.027802508 0.15417755 -0.020220006 0.06824252 0.13395754
0.13395754 0.17439756 0.0 -0.14912254 -0.13395754 0.0025275007 -0.10615503 0.07329752
-0.045495015 0.0050550015 -0.09351753 0.13901255 -0.09857253 0.058132518 -0.053077515 0.03538501
-0.07329752 -0.12890254 0.03538501 -0.19209005 -0.13143004 0.07077002 0.13143004 0.15923254
0.10110003 0.06066002 0.11373753 0.048022512 0.0050550015 0.088462524 0.08340752 -0.03791251
-0.20472756 0.025275007 -0.15923254 0.012637503 -0.14912254 0.16176005 -0.08593503 0.19209005
-0.19461755 -0.25022256 -0.055605017 -0.10362753 0.26033258 0.10615503 -0.14406754 0.18703505
0.15417755 -0.012637503 -0.21483757 0.03285751 -0.09099003 0.11121003 0.14406754 0.025275007
-0.027802508 0.015165005 -0.14659505 -0.08088002 -0.10110003 0.11373753 0.14406754 0.012637503
0.15417755 0.09099003 -0.12890254 -0.09351753 0.10362753 0.10868253 0.027802508 0.025275007
0.088462524 0.053077515 -0.078352526 0.18956256 -0.010110003 -0.11121003 -0.078352526 -0.08593503
0.06066002 -0.14912254 -0.17945255 -0.045495015 -0.10362753 0.22242007 -0.08088002 0.116265036
-0.027802508 -0.19209005 -0.09857253 0.06824252 -0.07329752 0.045495015 0.012637503 0.12637503
0.16934255 -0.118792534 -0.11373753 -0.11121003 0.015165005 -0.10362753 -0.08088002 0.045495015
0.18703505 -0.08340752 -0.03538501 -0.16681504 -0.025275007 0.096045025 -0.06571502 0.16428755
-0.050550014 0.06066002 0.18198006 -0.10362753 0.09351753 0.09099003 0.017692504 0.03285751
0.23758507 -0.21231006 0.017692504 -0.17187005 -0.13143004 0.096045025 0.29824507 -0.13143004
0.07582502 -0.07077002 -0.13648504 -0.06571502 -0.096045025 -0.020220006 0.12132004 0.0
-0.0075825024 0.020220006 0.017692504 0.0075825024 -0.050550014 0.025275007 0.0050550015 -0.16176005
-0.06318752 0.12384754 0.17692505 -0.0025275007 0.13395754 -0.053077515 0.03033001 0.0075825024
-0.19967256 0.23505756 0.16934255 0.06571502 0.13143004 0.048022512 -0.14406754 -0.116265036
-0.09099003 0.12384754 0.0025275007 0.020220006 -0.10110003 -0.020220006 -0.088462524 0.13395754
-0.017692504 0.07329752 0.03791251 -0.16428755 -0.025275007 -0.0050550015 0.14154004 0.03033001
0.14154004 0.13901255 -0.010110003 0.19714506 0.0 -0.08593503 -0.15417755 -0.15923254
-0.053077515 -0.14154004 -0.020220006 -0.07582502 -0.14912254 0.09857253 -0.0075825024 -0.20725507
-0.09351753 -0.017692504 0.03285751 0.12132004 -0.048022512 0.11373753 -0.11121003 -0.078352526
0.19967256 -0.027802508 -0.16681504 0.12890254 -0.03791251 0.07077002 0.06318752 -0.06066002
-0.10110003 0.06824252 -0.07329752 0.03033001 -0.020220006 0.12132004 0.042967513 0.010110003
00000000: 50e5 1e46 c6c2 1cfb efdf dcfc 2fca 03ff
00000010: 4ff2 0806 19c8 cb22 0809 181c f608 3f28
00000020: ebfc e50b 3df8 1b35 3545 00c5 cb01 d61d
00000030: ee02 db37 d917 eb0e e3cd 0eb4 cc1c 343f
00000040: 2818 2d13 0223 21f1 af0a c105 c540 de4c
00000050: b39d ead7 672a c74a 3dfb ab0d dc2c 390a
00000060: f506 c6e0 d82d 3905 3d24 cddb 292b 0b0a
00000070: 2315 e14b fcd4 e1de 18c5 b9ee d758 e02e
00000080: f5b4 d91b e312 0532 43d1 d3d4 06d7 e012
00000090: 4adf f2be f626 e641 ec18 48d7 2524 070d
000000a0: 5eac 07bc cc26 76cc 1ee4 cae6 daf8 3000
000000b0: fd08 0703 ec0a 02c0 e731 46ff 35eb 0c03
000000c0: b15d 431a 3413 c7d2 dc31 0108 d8f8 dd35
000000d0: f91d 0fbf f6fe 380c 3837 fc4e 00de c3c1
000000e0: ebc8 f8e2 c527 fdae dbf9 0d30 ed2d d4e1
000000f0: 4ff5 be33 f11c 19e8 d81b e30c f830 1104

sequential/quant_dense_3/MatMul;sequential/quant_dense_3/LastValueQuant/FakeQuantWithMinMaxVars i1 [12, 64] scale=0.0031640816 zero_point=0
-0.07910204 0.14871183 -0.031640816 -0.30375183 -0.2784392 -0.006328163 -0.14238366 0.23097795
0.056953467 -0.03796898 -0.15187591 -0.19617306 0.15187591 0.21515755 0.17402449 -0.11707102
0.05378939 -0.01898449 -0.24996245 -0.04113306 0.2056653 0.006328163 -0.21199347 0.22148572
-0.2752751 -0.2056653 -0.10125061 -0.27211103 0.01898449 -0.12972735 0.24679837 0.13289143
-0.085430205 -0.0031640816 -0.23097795 -0.12339918 0.07910204 0.13289143 -0.2752751 -0.094922446
-0.006328163 -0.18351673 -0.16136816 -0.08226612 0.09808653 -0.066445716 -0.085430205 0.03796898
0.16136816 -0.11707102 -0.16769633 -0.27211103 -0.36070532 -0.16453224 -0.012656326 0.12972735
0.2404702 0.09808653 0.2056653 0.14554775 -0.05378939 -0.07910204 -0.15504 -0.07593796
-0.22148572 -0.23414204 -0.06328163 0.22148572 -0.26894695 0.01898449 0.06011755 -0.056953467
0.066445716 0.22781387 0.24363428 -0.18351673 -0.22148572 -0.009492245 -0.16136816 -0.21199347
-0.094922446 -0.050625306 -0.2056653 -0.11707102 0.19617306 0.104414694 -0.015820408 -0.2784392
-0.19933714 0.16769633 0.05378939 0.07910204 -0.18035266 -0.056953467 -0.08859429 -0.009492245
0.072773874 -0.047461223 -0.14554775 0.19933714 -0.27211103 0.15187591 -0.18984489 0.17086041
-0.11074286 -0.22781387 0.19617306 0.2056653 -0.11074286 -0.3069159 0.26578286 -0.07910204
0.15504 -0.1202351 0.006328163 0.14238366 -0.14238366 0.031640816 0.12656327 0.0696098
-0.025312653 -0.28160328 -0.22781387 0.03796898 -0.28476733 -0.19933714 0.15187591 -0.015820408
-0.0696098 -0.10757878 0.05378939 0.0031640816 0.16136816 -0.20882939 -0.23414204 -0.14871183
-0.33539265 0.056953467 -0.06011755 -0.044297144 -0.2752751 -0.21832164 -0.044297144 -0.01898449
-0.0031640816 0.12339918 -0.32273632 0.22781387 0.14238366 -0.21515755 0.10125061 -0.2056653
-0.18035266 -0.26894695 -0.028476734 -0.21832164 0.104414694 0.006328163 -0.056953467 -0.17402449
0.0031640816 -0.022148572 -0.13605551 -0.36070532 -0.0031640816 -0.11707102 0.094922446 -0.12972735
-0.104414694 -0.23414204 0.19300897 -0.16769633 0.085430205 -0.21515755 0.2752751 -0.40183836
0.12339918 -0.3069159 0.12972735 -0.094922446 0.18984489 -0.14871183 0.12339918 0.01898449
0.13289143 -0.19933714 -0.09175836 0.16453224 -0.2752751 0.22781387 -0.20882939 0.12339918
-0.15187591 -0.16453224 0.18984489 -0.28160328 0.113906935 0.3069159 -0.031640816 -0.025312653
-0.03796898 -0.2910955 0.22148572 -0.24679837 0.20250122 0.16136816 -0.1392196 -0.10757878
-0.07910204 0.17402449 0.09808653 0.1392196 -0.21832164 0.15820408 0.22781387 -0.2562906
0.21515755 0.22781387 0.17718858 0.22464979 -0.094922446 0.044297144 0.18668081 -0.14554775
0.19617306 0.056953467 -0.2562906 0.23414204 -0.085430205 -0.21199347 0.031640816 -0.10757878
0.15820408 0.17718858 0.20250122 -0.050625306 0.2056653 0.16136816 0.022148572 0.066445716
-0.22781387 -0.11074286 -0.12339918 0.12339918 -0.16136816 0.072773874 -0.04113306 -0.2594547
-0.14238366 -0.006328163 -0.012656326 0.11707102 -0.2784392 -0.19300897 -0.22148572 -0.18668081
00000000: e72f f6a0 a8fe d349 12f4 d0c2 3044 37db
00000010: 11fa b1f3 4102 bd46 a9bf e0aa 06d7 4e2a
00000020: e5ff b7d9 192a a9e2 fec6 cde6 1feb e50c
00000030: 33db cbaa 8ecc fc29 4c1f 412e efe7 cfe8
00000040: bab6 ec46 ab06 13ee 1548 4dc6 bafd cdbd
00000050: e2f0 bfdb 3e21 fba8 c135 1119 c7ee e4fd
00000060: 17f1 d23f aa30 c436 ddb8 3e41 dd9f 54e7
00000070: 31da 022d d30a 2816 f8a7 b80c a6c1 30fb
00000080: eade 1101 33be b6d1 9612 edf2 a9bb f2fa
00000090: ff27 9a48 2dbc 20bf c7ab f7bb 2102 eec9
000000a0: 01f9 d58e ffdb 1ed7 dfb6 3dcb 1bbc 5781
000000b0: 279f 29e2 3cd1 2706 2ac1 e334 a948 be27
000000c0: d0cc 3ca7 2461 f6f8 f4a4 46b2 4033 d4de
000000d0: e737 1f2c bb32 48af 4448 3847 e20e 3bd2
000000e0: 3e12 af4a e5bd 0ade 3238 40f0 4133 0715
000000f0: b8dd d927 cd17 f3ae d3fe fc25 a8c3 bac5
